{"class_name": "Functional", "config": {"name": "model_7", "layers": [{"class_name": "InputLayer", "config": {"batch_input_shape": [null, 28, 28, 3], "dtype": "float32", "sparse": false, "ragged": false, "name": "input_6"}, "name": "input_6", "inbound_nodes": []}, {"class_name": "Flatten", "config": {"name": "flatten_1", "trainable": true, "dtype": "float32", "data_format": "channels_last"}, "name": "flatten_1", "inbound_nodes": [[["input_6", 0, 0, {}]]]}, {"class_name": "Dense", "config": {"name": "dense_13", "trainable": true, "dtype": "float32", "units": 1024, "activation": "linear", "use_bias": true, "kernel_initializer": {"class_name": "GlorotUniform", "config": {"seed": null}}, "bias_initializer": {"class_name": "Zeros", "config": {}}, "kernel_regularizer": null, "bias_regularizer": null, "activity_regularizer": null, "kernel_constraint": null, "bias_constraint": null}, "name": "dense_13", "inbound_nodes": [[["flatten_1", 0, 0, {}]]]}, {"class_name": "LeakyReLU", "config": {"name": "leaky_re_lu_8", "trainable": true, "dtype": "float32", "alpha": 0.20000000298023224}, "name": "leaky_re_lu_8", "inbound_nodes": [[["dense_13", 0, 0, {}]]]}, {"class_name": "Dense", "config": {"name": "dense_14", "trainable": true, "dtype": "float32", "units": 1024, "activation": "linear", "use_bias": true, "kernel_initializer": {"class_name": "GlorotUniform", "config": {"seed": null}}, "bias_initializer": {"class_name": "Zeros", "config": {}}, "kernel_regularizer": null, "bias_regularizer": null, "activity_regularizer": null, "kernel_constraint": null, "bias_constraint": null}, "name": "dense_14", "inbound_nodes": [[["leaky_re_lu_8", 0, 0, {}]]]}, {"class_name": "LeakyReLU", "config": {"name": "leaky_re_lu_9", "trainable": true, "dtype": "float32", "alpha": 0.20000000298023224}, "name": "leaky_re_lu_9", "inbound_nodes": [[["dense_14", 0, 0, {}]]]}, {"class_name": "Dense", "config": {"name": "dense_15", "trainable": true, "dtype": "float32", "units": 4, "activation": "linear", "use_bias": true, "kernel_initializer": {"class_name": "GlorotUniform", "config": {"seed": null}}, "bias_initializer": {"class_name": "Zeros", "config": {}}, "kernel_regularizer": null, "bias_regularizer": null, "activity_regularizer": null, "kernel_constraint": null, "bias_constraint": null}, "name": "dense_15", "inbound_nodes": [[["leaky_re_lu_9", 0, 0, {}]]]}, {"class_name": "Dense", "config": {"name": "dense_16", "trainable": true, "dtype": "float32", "units": 4, "activation": "linear", "use_bias": true, "kernel_initializer": {"class_name": "GlorotUniform", "config": {"seed": null}}, "bias_initializer": {"class_name": "Zeros", "config": {}}, "kernel_regularizer": null, "bias_regularizer": null, "activity_regularizer": null, "kernel_constraint": null, "bias_constraint": null}, "name": "dense_16", "inbound_nodes": [[["leaky_re_lu_9", 0, 0, {}]]]}, {"class_name": "Lambda", "config": {"name": "lambda_1", "trainable": true, "dtype": "float32", "function": ["4wEAAAAAAAAAAAAAAAQAAAAFAAAAQwAAAHM0AAAAfABcAn0BfQJ0AGoBdACgAnwBoQFkAWQCZAON\nA30DfAF0AKADfAJkBBsAoQF8AxQAFwBTACkFTmcAAAAAAAAAAGcAAAAAAADwPykD2gVzaGFwZdoE\nbWVhbtoGc3RkZGV26QIAAAApBNoBS9oNcmFuZG9tX25vcm1hbHIBAAAA2gNleHApBNoEYXJnc9oC\nbXXaB2xvZ192YXLaB2Vwc2lsb26pAHIMAAAA+mAvVXNlcnMvZnJhbmNlc2NvYm9kcmlhL0dpdGh1\nYi9YQUktY291cnNlXzIwMjEvSW1hZ2VzL2V4dGVybmFscy9BQkVMRS9hdXRvZW5jb2RlcnMvYWR2\nZXJzYXJpYWwucHnaCHNhbXBsaW5nEwAAAHMGAAAAAAEIARYB\n", null, null], "function_type": "lambda", "module": "externals.ABELE.autoencoders.adversarial", "output_shape": null, "output_shape_type": "raw", "output_shape_module": null, "arguments": {}}, "name": "lambda_1", "inbound_nodes": [[["dense_15", 0, 0, {}], ["dense_16", 0, 0, {}]]]}], "input_layers": [["input_6", 0, 0]], "output_layers": [["lambda_1", 0, 0]]}, "keras_version": "2.6.0", "backend": "tensorflow"}