{"class_name": "Functional", "config": {"name": "model_6", "layers": [{"class_name": "InputLayer", "config": {"batch_input_shape": [null, 28, 28, 3], "dtype": "float32", "sparse": false, "ragged": false, "name": "input_5"}, "name": "input_5", "inbound_nodes": []}, {"class_name": "Flatten", "config": {"name": "flatten_1", "trainable": true, "dtype": "float32", "data_format": "channels_last"}, "name": "flatten_1", "inbound_nodes": [[["input_5", 0, 0, {}]]]}, {"class_name": "Dense", "config": {"name": "dense_10", "trainable": true, "dtype": "float32", "units": 1024, "activation": "linear", "use_bias": true, "kernel_initializer": {"class_name": "GlorotUniform", "config": {"seed": null}}, "bias_initializer": {"class_name": "Zeros", "config": {}}, "kernel_regularizer": null, "bias_regularizer": null, "activity_regularizer": null, "kernel_constraint": null, "bias_constraint": null}, "name": "dense_10", "inbound_nodes": [[["flatten_1", 0, 0, {}]]]}, {"class_name": "LeakyReLU", "config": {"name": "leaky_re_lu_6", "trainable": true, "dtype": "float32", "alpha": 0.20000000298023224}, "name": "leaky_re_lu_6", "inbound_nodes": [[["dense_10", 0, 0, {}]]]}, {"class_name": "Dense", "config": {"name": "dense_11", "trainable": true, "dtype": "float32", "units": 1024, "activation": "linear", "use_bias": true, "kernel_initializer": {"class_name": "GlorotUniform", "config": {"seed": null}}, "bias_initializer": {"class_name": "Zeros", "config": {}}, "kernel_regularizer": null, "bias_regularizer": null, "activity_regularizer": null, "kernel_constraint": null, "bias_constraint": null}, "name": "dense_11", "inbound_nodes": [[["leaky_re_lu_6", 0, 0, {}]]]}, {"class_name": "LeakyReLU", "config": {"name": "leaky_re_lu_7", "trainable": true, "dtype": "float32", "alpha": 0.20000000298023224}, "name": "leaky_re_lu_7", "inbound_nodes": [[["dense_11", 0, 0, {}]]]}, {"class_name": "Dense", "config": {"name": "dense_12", "trainable": true, "dtype": "float32", "units": 4, "activation": "linear", "use_bias": true, "kernel_initializer": {"class_name": "GlorotUniform", "config": {"seed": null}}, "bias_initializer": {"class_name": "Zeros", "config": {}}, "kernel_regularizer": null, "bias_regularizer": null, "activity_regularizer": null, "kernel_constraint": null, "bias_constraint": null}, "name": "dense_12", "inbound_nodes": [[["leaky_re_lu_7", 0, 0, {}]]]}, {"class_name": "Dense", "config": {"name": "dense_13", "trainable": true, "dtype": "float32", "units": 4, "activation": "linear", "use_bias": true, "kernel_initializer": {"class_name": "GlorotUniform", "config": {"seed": null}}, "bias_initializer": {"class_name": "Zeros", "config": {}}, "kernel_regularizer": null, "bias_regularizer": null, "activity_regularizer": null, "kernel_constraint": null, "bias_constraint": null}, "name": "dense_13", "inbound_nodes": [[["leaky_re_lu_7", 0, 0, {}]]]}, {"class_name": "Lambda", "config": {"name": "lambda_1", "trainable": true, "dtype": "float32", "function": ["4wEAAAAAAAAABAAAAAUAAABDAAAAczQAAAB8AFwCfQF9AnQAagF0AKACfAGhAWQBZAJkA40DfQN8\nAXQAoAN8AmQEGwChAXwDFAAXAFMAKQVOZwAAAAAAAAAAZwAAAAAAAPA/KQPaBXNoYXBl2gRtZWFu\n2gZzdGRkZXbpAgAAACkE2gFL2g1yYW5kb21fbm9ybWFscgEAAADaA2V4cCkE2gRhcmdz2gJtddoH\nbG9nX3ZhctoHZXBzaWxvbqkAcgwAAAD6Sy9jb250ZW50L1hBSS1jb3Vyc2VfMjAyMS9JbWFnZXMv\nZXh0ZXJuYWxzL0FCRUxFL2F1dG9lbmNvZGVycy92YXJpYXRpb25hbC5wedoIc2FtcGxpbmcSAAAA\ncwYAAAAAAQgBFgE=\n", null, null], "function_type": "lambda", "module": "externals.ABELE.autoencoders.variational", "output_shape": null, "output_shape_type": "raw", "output_shape_module": null, "arguments": {}}, "name": "lambda_1", "inbound_nodes": [[["dense_12", 0, 0, {}], ["dense_13", 0, 0, {}]]]}], "input_layers": [["input_5", 0, 0]], "output_layers": [["lambda_1", 0, 0]]}, "keras_version": "2.7.0", "backend": "tensorflow"}